curve_plot/best_model_RGB_Dynamic_Layers3.pt (torch, 859838 bytes, 36 tensors)

layers.0.0.conv.weight f4 [64, 3, 3, 3]
00000000: 5226 103c 5769 18be 7b9e ccbd 8c47 0d3d
00000010: 5f27 093e 7e90 883d cb40 083e dd6b a23d
00000020: 0c13 b93d 5281 1c3d 6538 8cbd b331 f73d
00000030: 93c6 fdbd 30d5 f0bd a2c1 693d faf1 24bb
00000040: 82b1 c33d 9d34 003e 7ee0 c13d 40d9 243e
00000050: 3cc6 9bbd 1341 2f3e 9a74 a9bd ad87 a43d
00000060: 227e e2bb bd73 b03d b635 34be 44af f13d
00000070: d8ad 4f3d f8f4 133e f14a 5fbd ced7 d3bd
00000080: 21eb 8b3d 330e cebd 41ad 1ebe 3dba 52bd
00000090: 4cc8 19be ed04 f9bd 5d58 c6bd 9c84 7fbc
000000a0: 1cc9 d6bb b504 bdbc aa07 f93d 8743 9f3d
000000b0: 009d b2bd a2ae b23d 6e60 0bbe 9308 4cbe
000000c0: 774f 34bd 6025 f9bd 0817 e6bc 34d9 e83d
000000d0: 1e62 003d 2650 243c 8343 843d 4cbc 323e
000000e0: 8d5e 8fbc d7c6 c93d 3868 9ebd d2aa 48bd
000000f0: 2f6e b13d 6fe1 ffbd 8f92 04bd ca1c 373e
00000100: 3ba9 0b3d 7f1d 10be e670 08be e372 59bd
00000110: 4fe6 263e e3ff 7ebd a956 9ebc 99a1 9b3d
00000120: 80f4 ca3a 8a41 c43c f500 2bbe 4d9b cbbd
00000130: e5e1 d03d b50f 02bc f813 b3bd de8b a73c
00000140: 9511 90bd a5c7 17be c09a 24be c5bb 2e3e
00000150: 1ec1 103e 02b3 6dbd a085 fd3d cddb f0bd
00000160: 6a77 2cbe 5e35 07bd ba5e 5fbd 1635 7f3d
00000170: 46c3 283e ae80 033d b5ca 233c 6155 083e
00000180: a9ac a3bc 027e 13bc 33cb 433d c55a 00be
00000190: cb5a 0f3d a2c5 52be 13d0 6fbd 8278 423d
000001a0: 1b0c 5e3c a2e9 1dbe 0860 ae3c 8419 31be
000001b0: 3cb3 aabd e141 eebd 6c66 75bd 3d15 94bd
000001c0: c1c7 533d e0da 323e 49aa 173d 4e47 223e
000001d0: 41c3 41bd 1f63 cb3d 1163 3bbe 916c a7bd
000001e0: 07c4 3ebc bc8b aebd a618 01be 0556 3bbe
000001f0: 5332 e6bc 5508 bc3b e8fa 87ba be16 cd3d
00000200: 9041 0fbe a8a5 f13d 6e2b f5bc bc5a 343e
00000210: 6085 8dbd 4e3e 0abe 0451 3d3e 43f7 59be
00000220: 7e6a f63d 9e3f 343e 9b4b 433c eb00 023d
00000230: bdf0 d4bc 6ea1 cdbd dd26 14be 98fb 003e
00000240: 2062 093c f124 223e 8ffc 6f3b ce6d 0bbe
00000250: b62d 523d d614 313e 1f6e 0f3e 32fe 5abc
00000260: dc65 f0bc be71 0f3c 6402 3e3e b25a 1d3e
00000270: ba71 00bd 4b68 00be 46f0 09be 2886 3abe
00000280: a16a 07be 21fb fc3d 29b0 07be af60 4bbc
00000290: c50f e5bd 7175 e1bd 77b2 37be a528 c53d
000002a0: fe00 f63d f52c bd3d 2f71 cd3d 7e33 8abd
000002b0: 48bc 38bd 5a77 84bd 5924 24be ff3c 5e3d
000002c0: 94ff 153e b163 133e b0a2 fbbd 8181 bf3d
000002d0: bc2d 2a3e 8f5e 2e3e 903d 1d3e 5255 eebd
000002e0: 4dee 173e 8737 1abe 9291 92bd a4a5 32bd
000002f0: 6968 983d bf85 5bbc bee1 313e d811 05bd
00000300: b1a8 b4bd a829 303e 39bc 193e eefa 1f3c
00000310: cc84 2cbe 3279 16bb 56fe 9bbd 72d0 b1bd
00000320: 1ffd 25be fed0 6a3d bc1b 2dbe 5b58 0b3e
00000330: 7c73 c63d a0c8 1abe 8e0d bb39 e482 bc3d
00000340: 189e 7fbd 4d93 5fbd f41e f2bd a3e7 9d3d
00000350: 64d3 8e3d e4e0 2b3e f868 14be 9c47 b23d
00000360: 3ff7 f7bd 7177 393d bc79 ccbd 1928 4abe
00000370: 549f f7bc ecfe 4bbd bb57 0bbe 84f2 f23d
00000380: e9d9 bf3b 7003 9a3c 0b44 2abe ae7e 21be
00000390: 319e 9039 4974 9abd 2382 773d 4bca 05bc
000003a0: 087a 723d de20 953c 3dd1 d53d d3ab fa3d
000003b0: 81f7 08be 67f3 28bd 5b70 d4bc 3816 213c
000003c0: b98c 20be 5d11 10be ce8d 903d aff9 c5bd
000003d0: 0fe3 0a3d 11e9 b0bd 5684 d4bd 7986 dc3d
000003e0: 03aa 8c3d b9b4 993d c61a bc3d 3670 1d3e
000003f0: 4cad 353e 1de1 ac3d 8427 413e 3441 eb3d
0.008798199 -0.14883934 -0.09991165 0.03449206 0.13393925 0.06668185 0.13305967 0.079307295
0.09036836 0.038209267 -0.06846694 0.12070026 -0.12391391 -0.11759412 0.05706943 -0.0025168643
0.09555341 0.1252007 0.094666466 0.160985 -0.076061696 0.17114668 -0.08274193 0.080336906
-0.006912009 0.08615825 -0.17598614 0.118010074 0.0507029 0.14448917 -0.05451483 -0.10343896
0.06831957 -0.10061302 -0.15495779 -0.051447142 -0.15017813 -0.12159143 -0.09684823 -0.015595581
-0.006554736 -0.023073534 0.12159665 0.07776552 -0.087213516 0.08724715 -0.13611004 -0.19925146
-0.044021096 -0.12165332 -0.028087154 0.11369553 0.03134357 0.0100288745 0.06458189 0.17454642
-0.01750114 0.09852379 -0.07734722 -0.048991032 0.08663594 -0.1249417 -0.03236633 0.17882076
0.034096938 -0.14073752 -0.13324317 -0.05308808 0.16298793 -0.06225575 -0.019328432 0.07599182
0.0015484244 0.023957033 -0.16699584 -0.09941731 0.10199336 -0.007938315 -0.08744043 0.020452436
-0.070346035 -0.14822252 -0.16074657 0.17063816 0.14136168 -0.058032043 0.123790026 -0.11760674
-0.16842428 -0.03300988 -0.054533698 0.062306486 0.16480741 0.03210514 0.00999706 0.1331382
-0.019979792 -0.009002211 0.047801208 -0.12534626 0.034998696 -0.20583203 -0.058548044 0.047478206
0.013552691 -0.15421155 0.021286026 -0.1729489 -0.083349675 -0.11633659 -0.05991213 -0.072306134
0.051704172 0.17466307 0.03702763 0.15847513 -0.04730535 0.09931015 -0.1829951 -0.08175004
-0.011643416 -0.08522746 -0.12607059 -0.18294533 -0.028100168 0.005738298 -0.0010374459 0.10014103
-0.13989854 0.117991745 -0.029927935 0.17612737 -0.06910205 -0.1350033 0.18487936 -0.21285729
0.120320305 0.17602393 0.011919881 0.031739157 -0.0259937 -0.10040556 -0.1446795 0.12595975
0.008385211 0.15834405 0.0036619043 -0.13616106 0.051313125 0.17293105 0.14006852 -0.013366269
-0.029345445 0.008755146 0.185556 0.15366629 -0.031358458 -0.12539785 -0.13470563 -0.18215239
-0.1322427 0.123525865 -0.13250794 -0.012413188 -0.111846484 -0.11008728 -0.17939173 0.09626893
0.12011908 0.092370905 0.10031354 -0.067481026 -0.045101434 -0.06468077 -0.1602949 0.05425739
0.14648277 0.14393498 -0.122868896 0.09350873 0.16619009 0.17028259 0.15355515 -0.11637367
0.14836998 -0.15060245 -0.071566716 -0.043615 0.0744179 -0.013398587 0.1737127 -0.03248772
-0.08821238 0.1720339 0.15013207 0.009764416 -0.16847533 -0.0022960422 -0.0761687 -0.08682336
-0.1620984 0.057328217 -0.16905111 0.13607924 0.09689996 -0.15115595 0.00035677518 0.09204653
-0.06240663 -0.054583836 -0.1182231 0.07710197 0.06973913 0.16785008 -0.14493167 0.08705065
-0.12107705 0.045279924 -0.099841565 -0.19741859 -0.03022734 -0.04980366 -0.13607685 0.118626624
0.0058548343 0.018800467 -0.16627519 -0.1577098 0.00027583682 -0.07541711 0.060426842 -0.008165906
0.05919841 0.018204149 0.104403 0.12239804 -0.13375665 -0.04124775 -0.025932482 0.0098319575
-0.15678681 -0.14069124 0.07058297 -0.09666764 0.033907946 -0.08638204 -0.103768036 0.10767836
0.06868365 0.07505173 0.09184794 0.15374836 0.17741889 0.084413745 0.1886273 0.11487046

layers.0.0.conv.bias f4 [64]
00000000: f662 1fbe 7aeb 9f3d a794 7fbd 3da5 1b3e
00000010: 4f9f 0abe 34d8 293d 6071 773d f4c4 8a3d
00000020: 15be e9bd 6903 d7bb 7266 ba3d 4558 1e3d
00000030: e5dc 9a3c e433 1abc 3e6a 7d3b 1bb8 ff3b
00000040: 6f36 7dbe 51a4 803e 7264 aebd f41a 8dbd
00000050: ba8f b73d fb6f ba3c d43b 9cbc e552 40ba
00000060: 2d4e 60be 72e8 973e 80f5 4b3d 71e1 d5bc
00000070: 4ce6 17bd daed 00be e564 16be 5a30 243e
00000080: b5d0 0ebd a8de ad3d 62e0 cabc 2125 25be
00000090: cca0 613d 3805 ddbd 6032 6bbe 804e 7b3e
000000a0: 6ce5 193d 6100 e8bd cf18 2d3e 3a8d 65bd
000000b0: 7166 183e 27de 4abd f988 fbbb 142e 89bd
000000c0: 65c8 4bbc faef 5d3d aa72 a9bc 9708 83bd
000000d0: f8c5 24bd 3569 50b9 a4c7 c53d 326a 24bc
000000e0: 9014 6f3c 8e61 3c3d 3788 133d cef6 023b
000000f0: e3ca 743d 8a8f 8fbd 8e05 463d c2cc f33d
-0.15565094 0.078085855 -0.062397625 0.15199752 -0.13537334 0.041465953 0.060410857 0.06775847
-0.114132084 -0.006561686 0.09101571 0.0386584 0.018904159 -0.009411786 0.0038668062 0.0078039295
-0.24727796 0.25125363 -0.08515252 -0.068899065 0.089629605 0.022758475 -0.019071497 -0.0007336571
-0.21904822 0.2966953 0.049794674 -0.026108475 -0.037084863 -0.12590733 -0.14686926 0.1603407
-0.034867007 0.08489734 -0.024765197 -0.16127445 0.05508499 -0.10792011 -0.22968435 0.24541664
0.03757231 -0.11328197 0.16903995 -0.056042887 0.14882828 -0.049528267 -0.0076762405 -0.06698242
-0.0124379145 0.054183938 -0.020684559 -0.06398123 -0.04022786 -0.00019875618 0.09657219 -0.010035085
0.014592305 0.045991473 0.036018576 0.0019983533 0.0597638 -0.070098 0.04834514 0.11904289

layers.0.0.attention.2.weight f4 [64, 3]
00000000: b390 0abe 3cad a2bd ea68 73ba 6f16 e8be
00000010: b3c5 243e 401d de3e bb0d 0080 c80d 0000
00000020: ae0d 0000 a719 34bd f29a 323c 276c b93e
00000030: df83 c13d 68c4 983d 0d81 c43e f87f 8fbe
00000040: 68c9 7abd 06c4 6abe b795 243d 61e9 35be
00000050: bd65 f9be 9fb0 ca3e b0c8 663c d83c 83be
00000060: b90d 0080 bf0d 0080 250e 0000 ba0d 0000
00000070: cd0d 0000 bd0d 0000 a59b de3c c994 fd3d
00000080: e6d4 c3bd d7da 713d a334 64be 2504 7e3d
00000090: bafb 34bd 69c0 603e c47c c5bd 355b 8fbd
000000a0: 911c 1dbe 8354 2fbe b775 843e 3422 823e
000000b0: f641 df3e c98d 7bbe 1089 78be 255c 0dbe
000000c0: 7c6f 253e a567 48be 891f 75bd bbd0 3a3e
000000d0: 5866 d93e ffcd ad3e 82e5 a53e 9422 c5bd
000000e0: 89c9 c23d 08f6 a2be e2df df3d 3a5a 543e
000000f0: 0587 a0bb cd52 54bc ebb8 80bc f3f0 0a3e
00000100: d3ff 933e c9b2 dc3e 2d67 9dbe 1c37 8a3e
00000110: 3949 9fbe 4c5b c4bc c099 1a3e 7614 023e
00000120: e28b 613c 3749 27bb 1ced 42bc aa4f d43e
00000130: fddb 4e3e 4bc7 bf3e 6c2e 23be eae2 bbbb
00000140: dfbf 333e 0516 0cbe 29dc ce3e 6b55 a5be
00000150: 2015 94be 4764 873d 3334 8b3d bf24 0d3e
00000160: a618 de3c 8001 a23d 3c8c 0e3d 1f1c a63c
00000170: 7954 3abc 433c 183e 8fe5 9dbe f1aa 8d3e
00000180: a829 aabd d0c9 98be aaf1 6fbe 6fb7 7b3e
00000190: 930d 103e e405 923d 03f6 ae3d d2c2 cfbd
000001a0: 77f6 6ebd 5bae b73e 70f9 1cbd d36d 23be
000001b0: 76bf 55be 9adf 09be ac91 09be bc3e 1c3d
000001c0: 4964 f03e 3a78 50be 70ce 9cbc ca95 773d
000001d0: 138f b0bd 5e04 d2be 0ef1 6fbd 53f1 79be
000001e0: e88d 90be 529c 8d3d e448 a03e 2d28 bc3e
000001f0: 9226 633e 0c5e 723d 78f9 f73c 3b60 743e
00000200: f7e9 7e3e 6c0f c1be 4eb4 18bd 6e4e cb3d
00000210: df82 afbc cb99 7b3d 0855 303e 3cf0 95bd
00000220: fdcc 2c3d cb6a 803e 3795 9bbe e80d cebe
00000230: 6f29 a8bd a54c 883e 3ad2 a93e 9654 80be
00000240: 3d74 00bf 8649 59be c434 e53e 7ea7 833e
00000250: 1c43 213e cb48 69bc 51b5 e7bd e3c6 553d
00000260: 7108 983e 13a8 6bbe b9bb 7d3e 0d2d 513e
00000270: 19f9 b63d 1aac 813e 00c0 073e c02b 04bf
00000280: e37d dabd 24a1 a7be 53c2 673e c9b0 18be
00000290: 1e65 69be ba63 e23e 9749 f8be ec5f dabd
000002a0: 777e 0bbe 6464 e13d f05a 3cbe eec2 32bd
000002b0: 94ad f0be 8eac 62be 1699 edbc 19f2 f43e
000002c0: a1f5 983e 3da8 b6be 3db3 20be 332d 123e
000002d0: 78a7 a63e 469d 96be a71f 8ebe 5413 5ebe
000002e0: 6d39 823e a6a4 913e 2169 02be afff b83c
000002f0: 364a 3a3e afd7 983e a27b bb3e ecc9 f1be
-0.13531761 -0.07943198 -0.0009285348 -0.45329615 0.16091041 0.4338169 -4.926e-42 4.944e-42
4.907e-42 -0.043969776 0.0109012 0.36215326 0.094489805 0.074593365 0.38379708 -0.2802732
-0.061227232 -0.2292634 0.04018184 -0.17764808 -0.48710433 0.39587876 0.014085934 -0.25632358
-4.923e-42 -4.931e-42 5.074e-42 4.924e-42 4.951e-42 4.928e-42 0.027173826 0.12381894
-0.095620915 0.059046593 -0.22285704 0.06201567 -0.044185378 0.21948399 -0.09642938 -0.06999818
-0.15342928 -0.17122082 0.2587106 0.2541672 0.43605012 -0.24565805 -0.24271035 -0.13804682
0.16155809 -0.19570787 -0.059844527 0.18243687 0.42460895 0.33946225 0.32401663 -0.09625736
0.09511096 -0.31828332 0.10931374 0.20737544 -0.004898908 -0.012959194 -0.015713176 0.13568477
0.28906116 0.43105152 -0.3074278 0.2699517 -0.31110552 -0.023969315 0.15097713 0.12703118
0.013766261 -0.0025525817 -0.011897352 0.4146703 0.20201106 0.37456736 -0.15935677 -0.0057338374
0.17553662 -0.13680275 0.40402344 -0.3229173 -0.28922367 0.06610923 0.067970656 0.13783549
0.027111363 0.07910442 0.034801707 0.020277081 -0.011372679 0.14866738 -0.30839202 0.2766948
-0.083087265 -0.2984147 -0.23432031 0.24581693 0.14067678 0.0713003 0.08543017 -0.10144581
-0.058340516 0.3587521 -0.03832382 -0.15959863 -0.20873818 -0.13464203 -0.13434476 0.038145766
0.46951512 -0.20358363 -0.019141406 0.060445584 -0.08621039 -0.41018957 -0.058579497 -0.24408464
-0.28233266 0.06914581 0.3130561 0.36749402 0.22182682 0.05917172 0.030270323 0.23864834
0.24893938 -0.37707078 -0.037281327 0.09927069 -0.021424709 0.061425965 0.17219937 -0.07321212
0.04218768 0.25081477 -0.3038728 -0.40244985 -0.08211028 0.26620975 0.33168203 -0.25064534
-0.50177366 -0.21219453 0.4476682 0.25713724 0.15748256 -0.014238547 -0.1131388 0.052191626
0.2969394 -0.23013334 0.24778642 0.20427342 0.0893423 0.25326616 0.13256836 -0.5162926
-0.10668542 -0.32740128 0.22632723 -0.14911188 -0.2279248 0.4421671 -0.48493645 -0.10662827
-0.13622461 0.11005476 -0.18394065 -0.04364293 -0.4700743 -0.22136137 -0.029003661 0.47840956
0.298749 -0.3567523 -0.15693374 0.14275055 0.32549644 -0.29416865 -0.27758524 -0.2168706
0.25434437 0.2844593 -0.12735416 0.022582857 0.18192372 0.29852054 0.36617762 -0.47224367

layers.0.0.attention.2.bias f4 [64]
00000000: f49f 9cbd bb0d de3e b30d 0080 f1bc dc3e
00000010: 1c43 66be e325 253e d87c aebe 2103 41be
00000020: d1a6 2a94 b60d 0000 e858 623d eb71 1fbe
00000030: d42c 2abe 3e5e dd3e 06d4 48be 549e 53be
00000040: 87d6 2e3d 885c 933e d6f9 07be 05de 9fbd
00000050: cb48 413d 806a 6e3e f849 21be ef58 463d
00000060: 44e2 9d3b 5390 023f 4fa8 7e3d 228a 2f3b
00000070: 651c 65be 6534 32bd c593 233d aa82 8f3e
00000080: 3503 efbe 2eb9 4abe 8127 903d 5dfc 033f
00000090: f524 fcbd f78a 46bd 305c a23e b35f c53e
000000a0: c351 4d3c 66c0 64be d8c7 5fbd caf2 14be
000000b0: 1de8 0f3e d1d3 dbbd 90bf 563e 576e 96be
000000c0: 7cac e53d 2e52 88be 045c c73e 2174 4fbd
000000d0: 2e59 1e3e 6969 9b3e f224 a03e 6e59 be3e
000000e0: 0700 503d 12a9 80be 8319 bbbe ba73 173d
000000f0: e21c 393e 4629 e73c 4515 933e 5242 9dbd
-0.07647696 0.4336985 -4.914e-42 0.431129 -0.22486538 0.16127734 -0.34079623 -0.1884885
-8.615705e-27 4.919e-42 0.05526057 -0.155708 -0.16618663 0.43235964 -0.1961213 -0.20665866
0.042685058 0.28781533 -0.13278899 -0.07806019 0.04718856 0.23282814 -0.15750873 0.048424657
0.0048182327 0.5100147 0.06217223 0.0026785214 -0.22374113 -0.043507 0.039935846 0.28029376
-0.46682134 -0.19797203 0.07038785 0.5155695 -0.123117365 -0.04847237 0.31710958 0.38549575
0.012531701 -0.22339019 -0.054633945 -0.14545742 0.14053388 -0.1073376 0.20971513 -0.29381058
0.112145394 -0.26625198 0.3893739 -0.05064786 0.15463707 0.3035386 0.31278187 0.37177604
0.050781276 -0.2512899 -0.365429 0.0369756 0.18077424 0.028217923 0.28727165 -0.07678665

layers.0.0.attention.4.weight f4 [2, 64]
00000000: 303c 70bd cf19 0fbe c20d 0000 de50 1bbd
00000010: 7fcc cebd f54e 27bd ecd9 243d 2c0f 2abd
00000020: b40d 0000 bf0d 0080 1aaa d6bc cd24 2e3c
00000030: d162 07bd 2060 2ebd d136 ec3d 80e4 663d
00000040: 987a 6d3c 48c3 a63d 0539 b63d d26a c83d
00000050: 0cd6 a43d 93ae aabd eea3 5e3d 265b c8bc
00000060: acf8 d6bc e39c cfbd d163 8dbc c144 66bd
00000070: 35d2 a53d 5e53 3abc 98e9 f1b7 1da1 27bd
00000080: f414 8d3d 4b83 f03c 80d3 b33d 4fbd cfbd
00000090: 9702 983d 161d 483d ced3 54bb 1679 92bd
000000a0: 9eff f93d a258 42bd d06f 9ebd 8af8 a93d
000000b0: 1b62 4dbc acd0 6ebd 2e84 c53c 0f48 15be
000000c0: 20da a6bd ba7a a13c 4731 cfbd 8bfe 8cbd
000000d0: b5ae 91bd c73a 5ebd 2692 d3bc 97b1 183e
000000e0: d25f 3d3d b6ac 30bd 6530 7e3d e79f 79bd
000000f0: 55f5 193e d9bf 98bd bd4d b1bc 5eff 253d
00000100: 9a8a 0ebd dcf2 c13d 410e 0080 bdce b7bd
00000110: 7556 6dbd 9c52 11bc 30a5 ecbd 37af adbd
00000120: b70d 0080 c50d 0080 48e0 9ebb dbda 3a3a
00000130: cf61 f53c bb64 96bb adcf 59bd 11d5 efbb
00000140: 9b1d a7bb 7e76 debd 12f9 3abd a9a5 c6bd
00000150: 4436 a63d 2b8e c43d 8258 c33d 5443 ddbd
00000160: b29d f7bc 4c4b 2a3d 52de 8f3b 8376 95bd
00000170: a3a0 38bd 1d3d fd3b 7830 da3b e0f4 dfbd
00000180: b1b2 3abd b4fc 0a3c 77c6 a43d 5fb7 d53d
00000190: 7c35 7f3d 39b3 7cbd 2876 1cbd 3a47 323c
000001a0: 1e95 7b3d 1801 703d 0a04 0bbd bb2c a73c
000001b0: 488b 573d 04c9 dabd ee0f d2bd 4a33 87bd
000001c0: c12c a43d 85a5 91bc 0399 f93d d064 00be
000001d0: c77e 823b a661 c53d 9058 b73c d3d0 debc
000001e0: 9118 933d 5934 debd 0867 e0bd 02f2 ee3d
000001f0: 7d19 283d ece7 d3bd b744 d33d 5cfc d1bd
-0.05865115 -0.13974689 4.935e-42 -0.037918918 -0.10097598 -0.040846784 0.04024689 -0.041518375
4.916e-42 -4.931e-42 -0.026204158 0.010628891 -0.033053223 -0.04257214 0.11533893 0.05637026
0.014494561 0.08142716 0.08897594 0.09785999 0.08048639 -0.08334079 0.054355554 -0.024457525
-0.026241623 -0.10137346 -0.01725951 -0.056217913 0.080967344 -0.011372415 -2.8838214e-05 -0.040925134
0.06888762 0.02935948 0.08780575 -0.101435296 0.07422369 0.048855864 -0.0032474878 -0.071520016
0.12206958 -0.047447808 -0.0773617 0.08299358 -0.012535597 -0.058304474 0.02411088 -0.1457827
-0.08147073 0.01971184 -0.10116821 -0.06884488 -0.07113401 -0.054255273 -0.025826525 0.14911495
0.04623396 -0.04313346 0.06205787 -0.06094351 0.15034993 -0.07458467 -0.021643514 0.04052674
-0.03480015 0.0947015 -5.113e-42 -0.08974979 -0.05794378 -0.008869793 -0.115549445 -0.08480685
-4.92e-42 -4.94e-42 -0.0048485138 0.0007127949 0.029953865 -0.0045896447 -0.05317657 -0.0073191007
-0.005099965 -0.10862444 -0.04564769 -0.09699566 0.08115819 0.09597429 0.09538366 -0.108038574
-0.030226562 0.041575715 0.0043905163 -0.07297995 -0.04507507 0.0077282325 0.00665861 -0.10935378
-0.04558057 0.008483101 0.08045667 0.10435366 0.062306866 -0.061694358 -0.03819862 0.01088124
0.061421506 0.058594793 -0.0339394 0.020407071 0.052623063 -0.10682872 -0.102569446 -0.066015795
0.08016349 -0.017779121 0.12187388 -0.12538457 0.003982398 0.096377656 0.022381097 -0.027199185
0.0718242 -0.10849828 -0.10957152 0.11667253 0.041039933 -0.1034697 0.10315841 -0.10253212

layers.0.0.attention.4.bias f4 [2]
00000000: 0a8c a8bd bc70 9b3d
-0.08229835 0.07589862

layers.0.1.weight f4 [32]
00000000: f0d5 5c3f 73fa 653f 3ab7 743f a9d6 5b3f
00000010: f8f0 6f3f 87ba 803f 2fd1 5f3f 4d7d 583f
00000020: a3cd 733f 9927 5f3f 7b6d 683f 973b 633f
00000030: b5f3 773f 182b 693f e74d 5c3f 9ff8 5e3f
00000040: 8d4d 8a3f d841 693f 9ea9 6a3f a4c7 6b3f
00000050: 9d7a 623f 56e8 703f ef42 6d3f 466b 683f
00000060: 33a7 6a3f f0d9 6a3f de2e 6a3f 5660 6d3f
00000070: f01d 623f ded5 693f 6d1b 613f 2fe0 613f
0.8626394 0.8983528 0.9559208 0.8587442 0.93727064 1.0056924 0.87428564 0.84566194
0.9523565 0.87169796 0.90792054 0.887628 0.9685624 0.9108138 0.8605637 0.87098116
1.0804917 0.91116095 0.91665065 0.921015 0.88468343 0.94104517 0.9268026 0.90788686
0.91661376 0.91738796 0.91477764 0.9272512 0.8832693 0.9134196 0.87932473 0.882327

layers.0.1.bias f4 [32]
00000000: 00ed 5d3c 9c6f b5bc 3743 f4bb 4a60 313c
00000010: 08ed a33d 4933 8abc 8cc5 5dbc b659 d0b9
00000020: a91c 46bd ae5e ac3c 8598 4b3d 0833 073b
00000030: bfd2 afbc c171 323c 9e93 ec3c 981e 023c
00000040: 517b fbbc e146 cb3d 5628 293b 5c76 0cbd
00000050: 28c5 2cba c531 afbc c6d0 37bd a07a 69bc
00000060: 760a 183d ded3 883b 88d1 1dbc 4f4e 933d
00000070: 2a8d b3bb 57e5 37bc 7631 03bc 2e08 1b3d
0.013545275 -0.022147946 -0.0074543017 0.01082618 0.080041945 -0.016870158 -0.013535868 -0.0003973969
-0.048367176 0.02104124 0.049706 0.0020629782 -0.021462796 0.010891379 0.028878983 0.007941864
-0.03069845 0.099256285 0.0025811396 -0.034292564 -0.0006590658 -0.021386037 -0.044876836 -0.0142504275
0.03711935 0.004175647 -0.009632476 0.071926706 -0.0054794746 -0.0112241125 -0.008007398 0.037849598

layers.0.1.running_mean f4 [32]
00000000: c2fa f83c a71f 263e 9e4a b6bc e1a7 5c3d
00000010: 6766 cfbd fc1f 693d 0556 a3bd 566b 323d
00000020: 2d56 9e3d f3d1 bebd 5eb6 3c3d 6a2c e03d
00000030: 6926 af3d a668 a5bd fd67 a7bd 0c80 b33d
00000040: d998 293d 369c c9bd af4b 4bbd d894 ac3d
00000050: 1037 b1bd eb28 3f3d aa8f 3c3d c001 cabc
00000060: def1 e83c a3c8 34bd b8b8 48be 0bdc d33c
00000070: 9b27 70bc 01a9 563c 9f57 e73d e58f 913d
0.030393008 0.16223012 -0.022252377 0.05387104 -0.101269536 0.05691527 -0.07975391 0.043559395
0.077312805 -0.093173884 0.046072356 0.10945971 0.08552248 -0.08076601 -0.08174131 0.087646574
0.041405533 -0.09844248 -0.049632724 0.08426827 -0.086530805 0.04666988 0.046035446 -0.024659038
0.028435644 -0.044136655 -0.19601715 0.02586176 -0.01465788 0.013101817 0.11296009 0.07107524

layers.0.1.running_var f4 [32]
00000000: 744a 7c3d e2b4 6b3e c80c 1f3d 8306 cd3c
00000010: b584 d43d 3357 773d a0a6 153e 3ea5 223d
00000020: 75ed ad3c 0244 803d c981 553c fa6a 773e
00000030: e202 973c 0f65 da3d 174e 943c 8a2a d33d
00000040: f084 683c a00e a53c cd51 e53d c94e 153d
00000050: 0304 013d c67f ee3c 51da 793d 396a 0e3d
00000060: 4df6 053d c1e0 4f3c f4b5 1c3f 18f0 303c
00000070: e482 893d f420 7b3d 9b76 a63e c9db 9f3c
0.06159444 0.2301822 0.03883055 0.02502752 0.10376874 0.060385894 0.14614344 0.03970837
0.021231392 0.062629715 0.0130314315 0.24161902 0.018433992 0.10663807 0.018103642 0.10310848
0.014191851 0.020148575 0.11197243 0.03645209 0.031497966 0.029113661 0.06099922 0.03476927
0.032705594 0.012687863 0.6121514 0.01079943 0.067144185 0.061310723 0.32512364 0.019513981

layers.1.0.conv.weight f4 [128, 32, 3, 3]
00000000: 4521 93bc 08bb 33bd 84a8 033d 8011 0dbd
00000010: 64c5 87bb e892 8e3c f623 3b3c 88f6 113d
00000020: ad11 263d f1e8 7e3c 344a 7c3c 5177 abbc
00000030: 49ff 98bc b3dc 1a3d 4578 c43a 678b 6bbc
00000040: a3aa 8fbc d79a 7cbc ea4a 60bc f0c8 633b
00000050: debb 5dbc ff00 43bd 2fbe c9bb 0c9d 36bd
00000060: 4e0b 14bd 398d fbbc c785 d53b be8f 113d
00000070: 9497 2abd 567f 373d e10f 5abb de8d d83b
00000080: bd25 71bc b8ef d2bc e4be 0939 1b7a 40bb
00000090: 862f ad3b f588 f0bc 33a8 3c3c 1e23 bfbc
000000a0: 0016 0a3d d9aa 003b fd4b 063d 35ce ee3c
000000b0: 1fd6 cf3b a767 1abd 2c49 1dbd af53 16bb
000000c0: 0e17 19bd 493e 77bd 800f 35bd 1bfc 95bc
000000d0: 4419 8ebb 3c63 e63b 5e44 c93c 55b7 dfbc
000000e0: 10cd 37bd cea3 68bd 3225 0fbd ee82 be3c
000000f0: bcda 943c a759 60bd f8a4 5dbd c9ed 97bc
00000100: cf6f b83c 83c3 84bb 60af 053d 750d b6bc
00000110: 21fb 073c ba71 2f3d 5d85 3bbd 7e85 e7bb
00000120: 1b61 283d 7f64 003d 93f0 06bd 3bbb f5bc
00000130: b118 233d ddea 09bb e9bc 1e3d ab50 9bbc
00000140: 4321 353d 9c5e 1cbc b066 163d 8f40 103c
00000150: d2ee ca3c 5e32 293d c884 bfbc 48f5 3b3d
00000160: c582 413c 37d8 413d 7b1b 1abd 41c4 d93c
00000170: 1dab cdbb c14e 273b a0c4 0cbd d217 4c3d
00000180: 9519 9f3c 4a90 82bc 9787 1b3d 1b8d e9bc
00000190: 4e7b 8c3c 459d 233c ea20 2cbc 68d8 013d
000001a0: 2487 b4bc a57c 8ebc 8fb5 d13c c030 04bd
000001b0: 1626 2abc 122c 2c3d 6b8d 7e3d 69a5 4fbc
000001c0: db59 863d d79b 2bbc 3225 1dbd 30ce ff3c
000001d0: af0e 1b3d cd8a e63c 59e6 783c 303e 54bd
000001e0: 1ea6 d63a 44e1 8bbc de8b 7dbb 8869 023c
000001f0: b7b2 93bc 9e07 14bd bc0c f93c 9ddd 993c
00000200: b306 5cbc 459e ed3b 7ed0 96bb 9963 1ebd
00000210: 4641 853c 528b e63c c3c1 083d f5e5 943c
00000220: 786b 2abd f805 8ebc 1ea1 7b3c 3d90 cb3c
00000230: aad5 c5ba 3d3f cebc dca5 f63c 29b9 1e3d
00000240: db71 fe3a a321 94bc 108c 543c d3de babc
00000250: 98da 22bc 16ce 953c 82c5 43bd ac5c 6bbb
00000260: e42c 393d 6199 3abc 7c7c b43c 917c b2bc
00000270: 581d 24bc 7c65 0a3d 5088 c93c 53a1 77bc
00000280: 98b3 7bbc 7dd1 dbbb 2630 9bbc 4c91 86bc
00000290: fa18 253d 105f b53b 1fcf aebc ff49 f03b
000002a0: b22d 26bb e6e8 12bd 9232 333d 8bfe 99bc
000002b0: 39ec 093d 472c d23c 0bd4 063d 2978 163d
000002c0: 4c10 213d 0079 6dbc 7b3c 4e3c a027 a8bb
000002d0: 641c 003d ae4a ca3c e62a b5bc b1b6 283d
000002e0: 723a 16bb 1bcc 0ebd 9e6e 1cbd 7cb7 94bc
000002f0: bc06 0c3c 3aa1 3f3d 1da8 7f3d 61c2 b1bc
00000300: 0937 243d ff55 fe3c eaed 183c 144e 71bc
00000310: e6d8 3bbc 398b 9a3d 6b16 c33b 38eb 853c
00000320: 400e 3bbc a72e 583c 795e c83c c7c5 c4bc
00000330: de66 ffbc 9c99 1d3c 10b0 29bc 73dd c7bc
00000340: db65 e63c 04dd 1dbc c7bf 5a3c 6513 153d
00000350: a8ae 0cbd 0709 783d 1477 24ba d48d 423d
00000360: 5db0 ba3c dc5f fb3c bd68 7238 7d69 e2bc
00000370: daf0 fc3c 8ba9 d83c 6f50 b8bc d324 ad3a
00000380: 1580 3b3d b10d 203d 7b03 9abc fc47 013d
00000390: a9fa 80bc 2576 b2bc a9c4 843a bd2e fdbc
000003a0: 4f7f 86bc 34cf 68bc aa16 54bc 472b f93c
000003b0: 2841 a13b ba46 073c 4862 3bbc c86f 373c
000003c0: a89a c33c f612 29bd 887a c93c 91b2 f2bc
000003d0: 891e d03c ab90 3d3d 1805 333b 8638 26bc
000003e0: af73 183d 79b3 32bd 61fd 39bd 42b9 31bd
000003f0: 65ca 23bd 0427 42bb b7e3 433b 4680 0e3c
-0.0179602 -0.04387954 0.03214313 -0.034440517 -0.004143404 0.017404035 0.011422148 0.0356355
0.0405442 0.015558467 0.015398551 -0.020930918 -0.018676417 0.03780813 0.0014989456 -0.014376498
-0.01753742 -0.015417776 -0.013689736 0.003475722 -0.013533561 -0.04760837 -0.006156705 -0.044583365
-0.036143593 -0.030706989 0.0065161916 0.035537474 -0.041648462 0.04479917 -0.0033273625 0.0066087088
-0.01471847 -0.025749072 0.0001313645 -0.0029369656 0.0052852063 -0.029362181 0.011514711 -0.023332175
0.033712387 0.0019633083 0.03278731 0.029151062 0.006342664 -0.037696507 -0.03839986 -0.0022938063
-0.037375502 -0.060362134 -0.044204235 -0.01830869 -0.004336508 0.0070308726 0.024568733 -0.0273091
-0.044873297 -0.05679684 -0.03494758 0.023255792 0.018170707 -0.054773 -0.054112405 -0.018546002
0.022514252 -0.004051627 0.032637954 -0.022223214 0.00829962 0.042833067 -0.045781482 -0.007065474
0.041108232 0.03134584 -0.032944273 -0.029996505 0.03981847 -0.002104453 0.038754378 -0.018959364
0.044221174 -0.009544041 0.036719024 0.0088044545 0.024772082 0.0413078 -0.023378745 0.045888215
0.011810963 0.04732534 -0.037623864 0.026582839 -0.006276502 0.0025529119 -0.034367204 0.049827404
0.019421378 -0.015937943 0.037971105 -0.028509667 0.01714864 0.009986226 -0.010505894 0.03170052
-0.022037096 -0.01739342 0.02559927 -0.032273054 -0.010385057 0.042034216 0.062146585 -0.012673714
0.06560107 -0.010474167 -0.03836555 0.031226248 0.0378558 0.028142357 0.015191638 -0.05181712
0.0016376411 -0.017075188 -0.0038688104 0.007959731 -0.018029554 -0.036140077 0.03040158 0.018782431
-0.013429332 0.007251533 -0.004602491 -0.038669202 0.016266476 0.028142605 0.03338791 0.018176058
-0.041606396 -0.01733683 0.015358238 0.024849052 -0.0015093584 -0.025176639 0.030108385 0.0387508
0.0019412594 -0.018082445 0.012972847 -0.022811329 -0.009939812 0.018286746 -0.04779578 -0.003591339
0.045208827 -0.011389107 0.022032015 -0.021787914 -0.010016762 0.03378819 0.024601132 -0.015114146
-0.015362643 -0.0067083226 -0.018943857 -0.016426705 0.040307023 0.005535014 -0.021338997 0.00733304
-0.0025356826 -0.03586664 0.0437494 -0.018798133 0.033672545 0.025655879 0.032917064 0.036735687
0.039322183 -0.014494181 0.012587662 -0.005131677 0.031277075 0.024693813 -0.022115182 0.041189853
-0.002292302 -0.03486262 -0.03819143 -0.018153898 0.0085465275 0.046784617 0.062416185 -0.021699132
0.040091548 0.031046866 0.009334067 -0.014728088 -0.011465287 0.07546086 0.0059536 0.016347513
-0.011416972 0.013194717 0.02445911 -0.024020089 -0.03117698 0.009619143 -0.010356918 -0.024397587
0.02812474 -0.009635214 0.013351387 0.03639545 -0.034346253 0.060555484 -0.00062738475 0.04749854
0.022789175 0.030685358 5.779484e-05 -0.027638191 0.030876566 0.026448032 -0.022499291 0.0013209827
0.045776445 0.039075557 -0.018800488 0.03156279 -0.015744524 -0.021784851 0.001012941 -0.030906076
-0.016418127 -0.014209557 -0.012944857 0.030416144 0.0049210973 0.008256609 -0.011437006 0.011196084
0.023877457 -0.04127785 0.02459456 -0.029626163 0.025405185 0.046280544 0.0027316269 -0.010145312
0.0372197 -0.04362819 -0.045407657 -0.043389566 -0.03998794 -0.0029625306 0.0029890367 0.008697575

layers.1.0.conv.bias f4 [128]
00000000: fe9c 453c 3737 56ba 4b05 50bd 770f 693d
00000010: fcc3 acbb fb77 713c 04f7 753d 9fa7 94bd
00000020: f4f5 0c3d df14 b6bd cc02 6a3d 745b 2fbd
00000030: 9d5a 0cbc ea03 cd3b bdf2 6c3d a6d4 53bd
00000040: 0eda 05bd bce8 723c 6877 4a3d 4e30 67bd
00000050: 333a 30bd c163 383d 2397 c1b9 f0e8 d43c
00000060: efc3 19bd 7d05 2a3d 5d2f 7e3d ebec 46bd
00000070: 7bb7 013c 0a97 3b3d 7523 07bd ceef 493d
00000080: 93ce a7bc 16dd 70bb 03bc ed3c 80eb 903b
00000090: a469 2f3d 78d1 34bd f51a 623c acf7 e13b
000000a0: 70f3 d53c c301 06bd b8c8 febc 334a b2bc
000000b0: 7c34 1fbd a1e7 9d3c 8ec3 55bc cd5c 893c
000000c0: 84bd 61bd 277c 0c3d 558f 67bd 77b0 c93d
000000d0: 923a 053b 471d 95ba 898d 0cbd 651a b23c
000000e0: b693 e43c edd9 09bd 9d83 b0bc 48a4 023d
000000f0: 6fab 16bd 2686 093d 6b10 a6bc 515a e13c
00000100: 8771 9c3d a8d2 96bd ec44 353d ca89 65bc
00000110: 3fc4 b1bc 0d28 7a3d 22d3 133d 2704 1ebd
00000120: 50bd 0abd 102b 873c 5f03 af3d 38b3 79bd
00000130: a6a7 373d 4e7f 9ebd 3610 a13c 9c12 0abd
00000140: 1b12 f9bb 084f d23c bf8d 40bc 5a19 2e3d
00000150: 3300 20bd 6d35 133d f198 91bd b278 903d
00000160: dd81 eabb 76c5 f53c 4e04 54bc 8e85 5fbc
00000170: c2c8 4d3c 71d6 8e39 857a 1bbc 409b b4bc
00000180: 3dc6 3cbb 7ace c63c d1f2 593c 3c18 16bd
00000190: 9fac 123d b5fe 45bd 04e0 bd3d b047 1dbd
000001a0: 7d87 26bd b53f 743c 3d3f bcba 9ec6 3c3c
000001b0: eca9 c83d 69b5 b4bd f143 40bb 40e0 823c
000001c0: 7e62 70bc d00d 753c e7d9 bebd a727 5f3d
000001d0: 8826 c3bc 03d6 f33c 797c 9dbc 381f 063d
000001e0: cb96 45bd e436 343d 87b8 753d 31a7 afbd
000001f0: d9f2 683c bb97 dfbc f5b4 273d 88bb 26bd
0.012061356 -0.000817168 -0.050786298 0.056899514 -0.0052723866 0.014738078 0.060050026 -0.07258534
0.034414247 -0.088906996 0.057131574 -0.042811826 -0.008566526 0.00625657 0.05784868 -0.05171647
-0.032678656 0.014825996 0.04943028 -0.05644255 -0.043024253 0.045017008 -0.00036924434 0.02598998
-0.037540372 0.04150914 0.062056888 -0.048565786 0.00791728 0.04579834 -0.0329928 0.04930096
-0.020484244 -0.0036752871 0.029020315 0.004422605 0.042825356 -0.044145077 0.013800372 0.00689598
0.026117057 -0.032716524 -0.03110157 -0.021763897 -0.038868412 0.019275488 -0.013047112 0.016767884
-0.055112377 0.03429809 -0.056533176 0.09848111 0.00203291 -0.0011376523 -0.034314666 0.021741102
0.027902465 -0.033655096 -0.021547133 0.031894952 -0.036784586 0.0335752 -0.0202715 0.027508887
0.07638841 -0.07364398 0.044255182 -0.014009902 -0.021700023 0.06107335 0.036090024 -0.03857818
-0.03387195 0.016500026 0.08545565 -0.060961932 0.044837616 -0.07739125 0.01966105 -0.033709154
-0.0076010353 0.02567245 -0.011752545 0.042504646 -0.03906269 0.035939623 -0.071092494 0.07054271
-0.007156594 0.030001383 -0.012940479 -0.013642682 0.012560071 0.00027244122 -0.00948966 -0.022046685
-0.0028804683 0.024268378 0.013302521 -0.036644205 0.035809156 -0.04833861 0.09271243 -0.038398445
-0.040656555 0.014907767 -0.0014362108 0.011521963 0.09798035 -0.08823664 -0.0029337371 0.015976071
-0.01467192 0.014956906 -0.09318905 0.054481175 -0.023822084 0.029765135 -0.019224392 0.032744616
-0.04823951 0.04399766 0.059990432 -0.08576811 0.014218056 -0.02729403 0.04094406 -0.040706187

layers.1.0.attention.2.weight f4 [64, 32]
00000000: 3274 573b 9567 c8bb 6ae9 bb3a fc8c 503c
00000010: 56dc b73c e974 f93b 055b 073d ed1b f23b
00000020: 2997 193d 05ce ab3c 53bd 4a3a 2ff5 683a
00000030: 92f6 883d d84a 533c 6ca3 ec3b 64ef 5fbc
00000040: 9c8d b23c 85ba a03b cf62 8bbc 0a48 e33c
00000050: fa47 3ebc b9c8 0f3d 62d7 853a 2d95 463c
00000060: f767 e73c 3ffa da3b bdb3 aaba 0183 f83c
00000070: 3d3b 233c 713e 5ebc 1aa9 1f3c bef0 3e39
00000080: 2e76 153d c235 02bb 6246 963d ff5c 1b3d
00000090: 8d8c 96bc b124 453d 007d b33c f1a5 833c
000000a0: bed0 903c e3bf f53b cda1 183c f37a 90bd
000000b0: ff47 4abc 0b9b 54bd 025b f83c 3d38 07bd
000000c0: 6793 993d d861 793d 7b5f 4bbb dad0 cd3d
000000d0: 4de2 ef3b 1101 e8bc 2a88 96bc f29b 77bc
000000e0: b6ec a0bc db83 f13c cf66 673d 0450 1dbc
000000f0: d746 dc3d 5f38 b3bd 2925 6abc 4f43 0bbd
00000100: 344b 1cbd 38ca cd3c 2975 68bc c734 563d
00000110: c751 c2bd a902 cabd a798 cdbd 479d 883b
00000120: b596 5dbd ce42 833d 46db 443a a18c 5a3d
00000130: f642 2bbd 70db d0bd 2aca bbbc 9834 b13c
00000140: a234 d4bd 9bce 113d 93ba 893d fbb3 953d
00000150: 790a bf3d 7fe1 2cbd f3e8 253b 2a91 57bd
00000160: bd64 0fbd 49e0 e13d e2e9 a9bc 9c68 44bd
00000170: ee86 50bb f9e8 4bbd aa84 e13d 92ea db3d
00000180: 868f 663c 77ba 4bbd 56d2 b23d 93aa b43d
00000190: 8f33 d43c b460 103d 0118 ba3d 69d9 a7bd
000001a0: 4a30 cabc 88b8 ce3d a58f dc3d f9ce 343d
000001b0: 3573 363e 2c0e 0b3e 27a8 9fbd eba3 ddbd
000001c0: 5a10 1b3e 13b9 cdbd 5fab 22bc c5aa 2fbc
000001d0: 629a 87bd 0b43 063e 4d9b 71bc 2847 983d
000001e0: f7aa 5ebd d8c2 a8bd 4a75 0fbb 6a1f 213e
000001f0: 2bda d63c 82d2 6abd 7b85 5d3d e83e 683d
00000200: c90d 0000 b70d 0000 ce0d 0000 cb0d 0080
00000210: c20d 0080 be0d 0080 ae0d 0080 550e 0080
00000220: b20d 0000 b90d 0080 b50d 0000 bf0d 0000
00000230: af0d 0080 b40d 0000 d00d 0080 c50d 0000
00000240: b50d 0000 b50d 0080 cf0d 0080 320f 0080
00000250: b30d 0080 b60d 0080 be0f 0080 bc0d 0080
00000260: ca0d 0080 be0d 0080 bb0d 0000 b60d 0000
00000270: b70d 0080 c60d 0080 b60d 0080 c80d 0080
00000280: d127 87bd b5c2 033d 7377 cd3d 7aa1 e63c
00000290: f00f bb3d f924 4fbd b15d 81bd 8a13 92bc
000002a0: 3c93 86bb f2c6 c43d 2bcd 4cbd dcc2 a6bc
000002b0: 62e0 1d3e dab1 e93d c6d2 d8bc cdfb 5b3d
000002c0: ab7b 3b3d e93c 443c 3998 e63d c2f2 ba3d
000002d0: bb3e b7bd bcf4 a63c b3f0 783b 5a06 be3d
000002e0: 6f85 e93a b7f0 abbd 0de6 a4bd 6dc8 ec3d
000002f0: 2357 783c 7e6a 053d 0895 cb3d bd60 c0bd
00000300: 54d9 a1bd eed9 fe3d 69d3 6cbd 30ee fdbc
00000310: 4390 bd3d abfe 743d f9c9 b6bc 2885 d1bd
00000320: bfa0 d5bc 694c 5c3d 887c 3f3e 97d4 8e3c
00000330: d908 a9bd 5f34 66bd 1225 9cbd 21fc 30bd
00000340: d0ef d23d 06be 1b3e c8bf fbbc 05f9 403c
00000350: 3eff a63d a32b 0b3d 5371 d0bd 4df1 b13d
00000360: 3653 78bd 632d 79bd 0b31 7fbd bc9b aa3d
00000370: 62fe b23d 36cb 14bd dad1 d5bc d8ac 81bd
00000380: dcfc ebbd 2031 733d 2368 033d d667 58bd
00000390: cdf3 a5bd de05 05be 742e 013e f500 f43c
000003a0: 0abd 89bd 2fca 933d 5e43 963d f8a9 af3d
000003b0: 187e 883d f263 f6bd 0b5e a13d cf37 91bd
000003c0: c63f cfbd 1503 553c d6f2 083e 75f2 5abd
000003d0: e50b d2bc 60bd 37bd 8379 363c af85 babd
000003e0: 7c3b fcba 78b1 a83d 2baa d53d 8e4e f2bc
000003f0: 9943 5c3d 012c 88bd 1c04 db3d 6106 0ebd
0.0032875654 -0.0061158636 0.0014336531 0.012728926 0.022443932 0.0076128137 0.033045787 0.007388583
0.037497673 0.020972261 0.00077339 0.0008886633 0.066876546 0.012896262 0.00722163 -0.013667915
0.02179604 0.0049050474 -0.017014889 0.027744312 -0.01161384 0.035103533 0.0010211284 0.012120527
0.028247816 0.0066826637 -0.0013023537 0.030335905 0.009962854 -0.013564692 0.009744907 0.00018209495
0.036489658 -0.0019868468 0.07337643 0.037930485 -0.018377567 0.048130695 0.02191019 0.016070338
0.017677661 0.0074996813 0.00931592 -0.07054701 -0.012346267 -0.051905673 0.030316833 -0.033012617
0.07498818 0.060884327 -0.0031032253 0.10049601 0.0073206783 -0.028320821 -0.018375475 -0.015112864
-0.019644123 0.029481819 0.05649453 -0.009601597 0.10755699 -0.08750986 -0.014291086 -0.033999737
-0.038157657 0.02512084 -0.014188089 0.052296426 -0.09488254 -0.09863789 -0.10038882 0.0041691395
-0.054098804 0.06409226 0.0007509481 0.05335677 -0.041811906 -0.101981044 -0.022923548 0.021631524
-0.103616014 0.035597425 0.06725039 0.07309719 0.093281694 -0.042207237 0.002531585 -0.052628674
-0.03500818 0.11029107 -0.020741407 -0.047951326 -0.0031818706 -0.049782727 0.11011632 0.107381
0.014072305 -0.049738374 0.08731525 0.08821597 0.025903491 0.035248473 0.0908661 -0.081957646
-0.02468123 0.1009379 0.107695855 0.044142697 0.17817385 0.13579625 -0.077957444 -0.108222805
0.15142956 -0.10045066 -0.009928553 -0.010721867 -0.06621243 0.13111512 -0.014746499 0.07435447
-0.054362264 -0.082402885 -0.0021889978 0.1573464 0.026227077 -0.057329662 0.054082375 0.056700617
4.945e-42 4.92e-42 4.952e-42 -4.948e-42 -4.935e-42 -4.93e-42 -4.907e-42 -5.141e-42
4.913e-42 -4.923e-42 4.917e-42 4.931e-42 -4.909e-42 4.916e-42 -4.955e-42 4.94e-42
4.917e-42 -4.917e-42 -4.954e-42 -5.451e-42 -4.914e-42 -4.919e-42 -5.647e-42 -4.927e-42
-4.947e-42 -4.93e-42 4.926e-42 4.919e-42 -4.92e-42 -4.941e-42 -4.919e-42 -4.944e-42
-0.06599391 0.03216811 0.10032549 0.02815317 0.09133899 -0.05057237 -0.06316698 -0.017831583
-0.004106907 0.09608258 -0.05000035 -0.020356588 0.15417627 0.114108756 -0.026467692 0.053706933
0.045772236 0.011977413 0.11259503 0.09128334 -0.08947512 0.02038037 0.0037985265 0.09278555
0.0017816256 -0.08395522 -0.08051691 0.11561666 0.015157494 0.032572262 0.09940535 -0.09393451
-0.0790278 0.124439105 -0.057818804 -0.030997366 0.09256031 0.059813183 -0.022313105 -0.10230476
-0.026077626 0.053783808 0.18699849 0.017435355 -0.08253641 -0.05620229 -0.07624258 -0.0432092
0.10299647 0.15209207 -0.030731097 0.011778121 0.08154152 0.033977162 -0.10177865 0.086886026
-0.06062623 -0.0608343 -0.06230263 0.08330485 0.08739926 -0.03632661 -0.026101042 -0.063317955
-0.115228385 0.05937302 0.032081734 -0.0528334 -0.08103142 -0.1299052 0.12615377 0.029785613
-0.067255095 0.07216298 0.07337068 0.08577341 0.066646755 -0.12030782 0.078792654 -0.07090723
-0.10119586 0.013001223 0.13373885 -0.05345388 -0.025640437 -0.044858336 0.011137369 -0.09107529
-0.0019243802 0.082369745 0.104328476 -0.029578473 0.053775404 -0.06649018 0.10694143 -0.034674052

layers.1.0.attention.2.bias f4 [64]
00000000: ce43 b03a d374 6b3d 3dde 123e dbd3 6f3d
00000010: b90d 0000 fd30 d7bb 2c24 37bd aba2 bd3d
00000020: f84c 47bd a187 a33c ba82 63bc aabd e4bd
00000030: 569c 4b3d 796c abbc b829 e5bc 57ae 393d
00000040: 4421 2dbd 1a80 243d 4c61 883d 297f 88bc
00000050: 7f53 99bd 9e39 a63c 5b9a d03d b50d 0080
00000060: 2e55 8e3d 0235 1abd 247a f33c 33ab 423c
00000070: 5378 6c3d 0f2c 3a3c 4824 903d 3f4d 1c3a
00000080: 8660 de3d 7d78 36bc a63e a2bd 7ac0 853d
00000090: f93d ea3d 9bb3 a6bc e646 b43d d9fe 523d
000000a0: 1fa0 d53b 710e db3c df55 0f3d 34ae df3b
000000b0: 8a68 2e3d 9e9e 153b 1833 593d 3781 243a
000000c0: aa64 f03c d113 6ebc cd0d 0080 19ff 3b3c
000000d0: b20d 0080 1e41 fdbc 070e 0000 52de f13d
000000e0: cb03 9339 5ecf 37bd e91e 333d e06f 743d
000000f0: 799d b2bb 2e1d 993b 54e2 bcbd 497a 143d
0.0013447942 0.05748446 0.1434259 0.05855165 4.923e-42 -0.006567119 -0.04471223 0.09259542
-0.048657387 0.019962134 -0.013886148 -0.11168988 0.04970964 -0.020925747 -0.027973995 0.04533228
-0.042268053 0.04016123 0.06659183 -0.016662197 -0.07486629 0.020291146 0.10185691 -4.917e-42
0.069498405 -0.03764821 0.029721327 0.011881637 0.057731938 0.011363043 0.0703817 0.00059624383
0.10858254 -0.011137125 -0.079221055 0.065308526 0.114376016 -0.020349314 0.08802585 0.051512573
0.006519332 0.026740285 0.034994002 0.0068261866 0.042580165 0.002283014 0.053027242 0.0006275358
0.029344875 -0.014531092 -4.951e-42 0.011474394 -4.913e-42 -0.03091484 5.032e-42 0.11809982
0.0002804085 -0.044875495 0.04373065 0.059677005 -0.005450901 0.004672668 -0.09222856 0.036249433

layers.1.0.attention.4.weight f4 [2, 64]
00000000: 6048 a9bd b31e 433b b1a8 2a3e 937d f3bd
00000010: af0d 0080 72b7 7cbd 8a89 c43d 4480 563d
00000020: a684 b3bd 9151 9b3d 1739 f03d 2167 843d
00000030: 5153 dbbd 42b0 103d 6a02 993d 074c 09bc
00000040: 61f3 a33c c67c bebd c627 8fbd a14f 8f3d
00000050: 63b9 df3a 9327 163e 57ff 623d b10d 0080
00000060: c6de 21be ef71 173e e1cc 543d 7836 2bbc
00000070: faea dfbd 19b4 8b3d dfef 803d 9f05 86bc
00000080: fe44 0d3b 14e5 96bb dbf1 f6bc 9ec2 443d
00000090: 3d06 b3bc dd06 3e3d 0a33 833d a8a0 cdbd
000000a0: 1a89 b43c d09b febd e0f9 16bc 2963 d33d
000000b0: d91d 943c 3278 333e 7188 c8bd 2dc7 1bbc
000000c0: a5f3 d43d f41c 82bd d10d 0080 ac98 f7bd
000000d0: ae0d 0000 4758 663d d90d 0080 d551 2c3e
000000e0: 1e51 293a 8a04 53bd 2635 973c 8a03 efbd
000000f0: cc95 073e 73ad d3bc c1c9 a2bd d7e0 453d
00000100: bae7 9a3c 063c a23d 4f26 733b 857c a73d
00000110: b50d 0080 df4f db3d 2ae8 fcbd 0c09 e1bd
00000120: 39e5 6cbc 61ee 66bd 5ae8 f8bd 8c26 bdbd
00000130: 8454 933d c1b2 fcbd 3e10 57bd 995e ebbd
00000140: f27d 45bd 490e 253d 31ed 643d 4ebb 59bb
00000150: b4dd 43bd 5eab 70be 00c4 2ebe c00d 0080
00000160: 4f7d 223d 1f5b 32be e6fc 2dbd 4844 0a3e
00000170: e362 913d 65d9 8bbd 8868 afbd 03fb f9bd
00000180: 50e4 07be 8351 123e fd56 f93d 998b cd3d
00000190: fa59 1dbe d654 25bd 6aad c7bd 2941 c5bb
000001a0: faf4 df3d e1f7 71bd 1f37 b73d 617a a7bd
000001b0: 780b a8bd 758a e0bd ec2f 0c3d fcee b33d
000001c0: 120e dbbd 27ad 5a3d b50d 0080 235f ec3d
000001d0: cd0d 0080 605d b2ba c30d 0080 9e52 78bd
000001e0: 68b8 513a 7959 433d b219 b3bd fcc7 2a3d
000001f0: f448 7e3d e1ce e03d 2658 1c3e fcdc aabd
-0.082657576 0.0029772937 0.16665913 -0.11889186 -4.909e-42 -0.061698385 0.09596546 0.052368417
-0.08765535 0.07583917 0.11729639 0.06464983 -0.10709251 0.035324343 0.074711636 -0.008379943
0.020013513 -0.093011424 -0.06990008 0.0699761 0.0017068799 0.14663534 0.055419292 -4.912e-42
-0.15807638 0.14789556 0.0519532 -0.010449998 -0.1093349 0.0682146 0.06295752 -0.016360102
0.0021556015 -0.004604945 -0.030144623 0.048037164 -0.02185356 0.046393264 0.06406219 -0.100404084
0.022038031 -0.124320626 -0.009214848 0.10321648 0.018080639 0.1752632 -0.09791649 -0.009507936
0.10398034 -0.063531786 -4.956e-42 -0.12089667 4.907e-42 0.05623653 -4.968e-42 0.16828091
0.0006458926 -0.051518 0.01845796 -0.11670597 0.13240737 -0.025839543 -0.07948638 0.048310127
0.018909324 0.07921605 0.003710169 0.08178047 -4.917e-42 0.107085936 -0.12348969 -0.10988054
-0.014458948 -0.05637968 -0.121536925 -0.09235868 0.071938545 -0.12338782 -0.052505724 -0.114926524
-0.048215814 0.040296827 0.055890266 -0.0033223215 -0.047818854 -0.23502871 -0.17066956 -4.933e-42
0.039670285 -0.17417572 -0.04247751 0.1350261 0.07098939 -0.06828574 -0.0856486 -0.1220608
-0.13270688 0.14288907 0.12174795 0.10036392 -0.15366355 -0.04036411 -0.09749873 -0.0060197306
0.109353974 -0.059074286 0.089460604 -0.08177639 -0.082053125 -0.109639086 0.03422539 0.08785817
-0.10696043 0.053387787 -4.917e-42 0.115415834 -4.951e-42 -0.001360815 -4.937e-42 -0.060625665
0.0008000196 0.04769275 -0.08745135 0.041694626 0.062081292 0.10976959 0.15268001 -0.08342931

layers.1.0.attention.4.bias f4 [2]
00000000: e9f9 153c f111 293d
0.0091538215 0.041276876

layers.1.1.weight f4 [64]
00000000: 8e73 583f 0ef9 5e3f e904 5d3f 53c9 803f
00000010: 1948 6e3f 56fc 703f 9ccd 6a3f 97c4 7f3f
00000020: c2a5 713f 665a 7b3f 501c 623f 6ddb 6f3f
00000030: b8d0 623f 0378 733f a0db 6b3f 66d4 593f
00000040: 5ca9 673f 9cd8 7b3f bd48 683f 6f2a 7f3f
00000050: 0f72 683f c943 663f 0de3 693f 8da2 5d3f
00000060: e9db 643f 6363 743f 283e 4f3f a2eb 563f
00000070: f7fd 6d3f 86fc 623f 8eb2 583f 3d43 613f
00000080: b292 693f 6762 6d3f a668 803f 6d03 683f
00000090: b6b6 573f 53e7 7b3f 265e 673f e70d 673f
000000a0: d568 683f 02b4 673f b1d8 653f 1dd8 593f
000000b0: edfb 693f 3476 673f 3966 663f 0bf5 6c3f
000000c0: d667 5d3f 22ac 6a3f c66c 683f 7ccf 783f
000000d0: 34a6 6c3f 5715 6c3f eaaf 6b3f acaa 683f
000000e0: 96bb 5c3f cb3e 6c3f 573b 653f be89 6e3f
000000f0: 0226 663f b150 7a3f 88de 783f 7215 6c3f
0.8455132 0.8709878 0.8633562 1.0061439 0.9307876 0.94135034 0.91719985 0.9990935
0.9439355 0.9818481 0.8832445 0.9369419 0.8859973 0.95105 0.92131996 0.8508972
0.90492797 0.98377395 0.9073599 0.99674124 0.9079904 0.8994718 0.91362077 0.8657616
0.89398056 0.9546415 0.8095422 0.839533 0.92965645 0.8866657 0.8464745 0.8799322
0.91239464 0.92728275 1.0031936 0.9063023 0.8426317 0.9839985 0.90378034 0.9025559
0.9078496 0.90509045 0.8978377 0.8509539 0.91400033 0.9041474 0.8999973 0.92561406
0.86486566 0.91668904 0.90790975 0.97191596 0.92441106 0.9222006 0.920653 0.90885425
0.86223733 0.92283314 0.8954367 0.9317893 0.89901745 0.97779375 0.97214556 0.9222022

layers.1.1.bias f4 [64]
00000000: dac4 ebbc d22f 80bc 1670 483c cff4 8bbd
00000010: 18a9 acba c680 80bd 2c62 2abb 1e59 a33c
00000020: 9c17 1d3d 9348 53bc a895 4e3b 955b cb3b
00000030: fca2 473a 8ec9 02bc 242f 20bd f82d cbbc
00000040: 2b8f 933d 675f 73bd 9ce2 4c3c abda 3fbb
00000050: 4c7e 5fbd 81e7 e73b 6d0a f2bc 0bde b4bb
00000060: 087b b13c 5a79 2d3b 875b 843b cd05 b5bc
00000070: efef dcbc 24a9 18bd 7d15 543c 4840 46bc
00000080: 340e 123d e5f8 71bd eb83 9d3c 25fe 06bc
00000090: 9eeb 13bc 4df1 77bc f23a 033d f835 133d
000000a0: 5ef6 e43b a39c bc3c 1f11 a8bc cc16 da3c
000000b0: 8f9e a9bb a2bf 403c 66e1 c63c 8895 603c
000000c0: 1c66 66bc fb82 083d 7357 573c 8e7d f7ba
000000d0: 3857 2abd a2c5 633d fb91 463d fa63 34bd
000000e0: 57ad 023d aec4 c1bc 8bce 3a3c 7c04 943c
000000f0: cda7 4d3d e089 043d c195 dabc 4c6c 9dbc
-0.02878039 -0.015647803 0.012233755 -0.06833803 -0.0013172952 -0.062745616 -0.0025998456 0.019939955
0.038352594 -0.012895721 0.0031522308 0.006205986 0.0007615534 -0.007982625 -0.039107457 -0.024802193
0.072050415 -0.059417155 0.0125052 -0.0029274623 -0.054563805 0.007077158 -0.029545987 -0.0055196336
0.021665111 0.0026470036 0.004039231 -0.022097493 -0.026969878 -0.03727068 0.012944576 -0.012100287
0.035658076 -0.059075255 0.019227942 -0.008239304 -0.0090283435 -0.015133214 0.032038637 0.03594014
0.006987377 0.023023909 -0.020515976 0.026622199 -0.0051763724 0.011764439 0.0242774 0.013707526
-0.014062431 0.033328038 0.013143408 -0.0018882023 -0.041587085 0.0556084 0.04847906 -0.044040658
0.03190359 -0.023653354 0.011401783 0.018068545 0.050208855 0.03235805 -0.026682736 -0.019216679

layers.1.1.running_mean f4 [64]
00000000: 96a0 293e d0df 98bd ced2 a8be 95bf 8e3d
00000010: ffc4 b9be 3860 233d 8f54 36be 03c0 20bd
00000020: 2378 aabe faaf c8be 317c dfbe d754 8fbd
00000030: 010d edbe 32d7 91be 255c d4be 99f2 acbd
00000040: c06f e8be bf9d 0a3e c3fe 63be 2c0a 7ebe
00000050: cdee e4bd a4c2 18be b89b bbbd f5da 18be
00000060: 315b c5be 5373 1abd a6a8 bbbd 7ef0 01be
00000070: a65a a33c a36d 7dbd 358e aebe 70dd 9e3e
00000080: 420c 98be 7464 4a3e 9d03 9bbd 146b 83be
00000090: 7299 d4be c4fc 0cbd 6237 f1be 3db1 8cbe
000000a0: ab87 92be 7b42 3fbe 6c9a 643e c950 2ebe
000000b0: 8ea2 37be d11b a13d 2a76 18bf a328 a7be
000000c0: 3a74 a63e b987 2bbf 4bc2 b8be d8a8 4dbe
000000d0: 3539 acbe 84cd ddbe 2975 dbbe 432c e13d
000000e0: b6af 8ebe 536a 60bd 6db6 a7be 293c bdbe
000000f0: 4b6a fcbd 9a74 21bf c72b 803e 50da 563e
0.16565165 -0.07464564 -0.3297333 0.06970135 -0.3628311 0.039886683 -0.17805694 -0.039245617
-0.33294782 -0.3919676 -0.43649438 -0.06998604 -0.46298984 -0.28484493 -0.4147655 -0.08444709
-0.45397758 0.13536738 -0.22265153 -0.24808568 -0.1117836 -0.14918 -0.0916056 -0.14927275
-0.38546136 -0.037707638 -0.091630265 -0.12689397 0.019940685 -0.061872136 -0.3409287 0.31028318
-0.29696852 0.19764882 -0.075690486 -0.25667632 -0.4152332 -0.034420744 -0.47112566 -0.27478972
-0.2861913 -0.18677704 0.22324532 -0.17023005 -0.17933103 0.07866634 -0.59555304 -0.3264819
0.3251055 -0.6700397 -0.36085734 -0.2008394 -0.33637396 -0.43320858 -0.42862824 0.109947704
-0.27868432 -0.0547889 -0.32756367 -0.3695996 -0.12324961 -0.63068545 0.250334 0.20981717

layers.1.1.running_var f4 [64]
00000000: a60e 903d ffa9 ab3d 2e9d 8b3d 92c8 813d
00000010: 98c9 ec3d 6cac 9f3d 292e 913d be8c 253e
00000020: 37f0 9a3d 1957 d53d 3747 ca3d 2c10 2f3d
00000030: febd 2c3e 0840 0f3e 0047 ec3d 9ee4 b03d
00000040: b10e cb3d a27e 933d b84b 0f3e f03c f33d
00000050: f1a6 533d d9de 793d 7981 c43d b484 be3d
00000060: 9552 513d 9359 c83d 16ed f03d 607d a93d
00000070: d6d0 453d e13b 693d a110 b13d cb8b ed3d
00000080: b41e 8a3d 4778 a33d d8fe d53d ab9c 873d
00000090: d68b c23d cdc7 073d bb1c 973d 9690 c33d
000000a0: 0ddc ff3d d311 273e 5b9a b23d 6bc1 aa3d
000000b0: 217f dc3d 29dc 703d fa4c fd3d e934 c03d
000000c0: ec74 b63d b660 3f3e ceb3 b13d 377b 863d
000000d0: eb30 0a3e 7743 d83d e93c c13d 96e2 8e3d
000000e0: 9a16 933d 6544 613d d7eb d03d 4e9b 043e
000000f0: af79 2a3d 0aa2 4e3e 4f45 973d 931b 723d
0.07034044 0.083820336 0.06817089 0.06337084 0.115618885 0.07796559 0.070888825 0.1616697
0.075653486 0.10417003 0.098768644 0.042740032 0.16869351 0.1398927 0.1153698 0.08637355
0.099149115 0.07201888 0.13993728 0.11876857 0.05167288 0.06100354 0.095950074 0.09302655
0.051104147 0.0978271 0.117639706 0.082758665 0.048294865 0.05694187 0.0864575 0.11598929
0.067441374 0.079819255 0.10448998 0.06621679 0.09499328 0.03314953 0.07378527 0.09549062
0.12493143 0.16315393 0.08720847 0.08337673 0.107664354 0.05880371 0.12368198 0.09385092
0.0890902 0.18689236 0.08676873 0.0656647 0.13495223 0.10559743 0.09435446 0.069768116
0.07182045 0.054996867 0.10201233 0.12949869 0.041619953 0.20179 0.073862664 0.059108328
